…
   "metadata": {},
   "outputs": [
    {
     "name": "stdout",
     "output_type": "stream",
     "text": [
      "config: {'l1': 8, 'epochs': 2048, 'batch_size': 2048, 'act_fn': Swish(), 'optimizer': 'Adamax', 'dropout_prob': 0.025, 'lr_mult': 10.0, 'patience': 128, 'batch_norm': False, 'initialization': 'kaiming_normal'}\n",
      "Loading model with 8_2048_2048_Swish_Adamax_0.025_10.0_128_False_kaiming_normal_TEST from runs/saved_models/8_2048_2048_Swish_Adamax_0.025_10.0_128_False_kaiming_normal_TEST/last.ckpt\n",
      "Model: NNLinearRegressor(\n",
      "  (layers): Sequential(\n",
      "    (0): Linear(in_features=10, out_features=8, bias=True)\n",
      "    (1): Swish()\n",
      "    (2): Dropout(p=0.025, inplace=False)\n",
      "    (3): Linear(in_features=8, out_features=4, bias=True)\n",
      "    (4): Swish()\n",
      "    (5): Dropout(p=0.025, inplace=False)\n",
      "    (6): Linear(in_features=4, out_features=4, bias=True)\n",
      "    (7): Swish()\n",
      "    (8): Dropout(p=0.025, inplace=False)\n",
      "    (9): Linear(in_features=4, out_features=2, bias=True)\n",
      "    (10): Swish()\n",
      "    (11): Dropout(p=0.025, inplace=False)\n",
      "    (12): Linear(in_features=2, out_features=2, bias=True)\n",
      "    (13): Swish()\n",
      "    (14): Dropout(p=0.025, inplace=False)\n",
      "    (15): Linear(in_features=2, out_features=2, bias=True)\n",
      "    (16): Swish()\n",
      "    (17): Dropout(p=0.025, inplace=False)\n",
      "    (18): Linear(in_features=2, out_features=1, bias=True)\n",
      "  )\n",
      ")\n"
     ]
    }
   ],
   "source": [
    "model = load_light_from_checkpoint(config, fun_control)"
   ]
  },
  {
   "cell_type": "markdown",
   "id": "8041dc36",
   "metadata": {},
   "source": [
    "##### Details of the Training Process on the Test Data\n",
    "\n",
    "* The `test_model` method initializes the model with the tuned architecture as follows:\n",
…
     "text": [
      "train_model result: {'val_loss': 4836.5693359375, 'hp_metric': 4836.5693359375}\n",
      "config: {'l1': 8, 'epochs': 2048, 'batch_size': 2048, 'act_fn': Swish(), 'optimizer': 'Adamax', 'dropout_prob': 0.025, 'lr_mult': 10.0, 'patience': 128, 'batch_norm': False, 'initialization': 'kaiming_normal'}\n",
      "Loading model with 8_2048_2048_Swish_Adamax_0.025_10.0_128_False_kaiming_normal_TRAIN from runs/saved_models/8_2048_2048_Swish_Adamax_0.025_10.0_128_False_kaiming_normal_TRAIN/last.ckpt\n",
      "Model: NNLinearRegressor(\n",
      "  (layers): Sequential(\n",
      "    (0): Linear(in_features=10, out_features=8, bias=True)\n",
      "    (1): Swish()\n",
      "    (2): Dropout(p=0.025, inplace=False)\n",
      "    (3): Linear(in_features=8, out_features=4, bias=True)\n",
      "    (4): Swish()\n",
      "    (5): Dropout(p=0.025, inplace=False)\n",
      "    (6): Linear(in_features=4, out_features=4, bias=True)\n",
      "    (7): Swish()\n",
      "    (8): Dropout(p=0.025, inplace=False)\n",
      "    (9): Linear(in_features=4, out_features=2, bias=True)\n",
      "    (10): Swish()\n",
      "    (11): Dropout(p=0.025, inplace=False)\n",
      "    (12): Linear(in_features=2, out_features=2, bias=True)\n",
      "    (13): Swish()\n",
      "    (14): Dropout(p=0.025, inplace=False)\n",
      "    (15): Linear(in_features=2, out_features=2, bias=True)\n",
      "    (16): Swish()\n",
      "    (17): Dropout(p=0.025, inplace=False)\n",
      "    (18): Linear(in_features=2, out_features=1, bias=True)\n",
      "  )\n",
      ")\n"
     ]
    },
    {
     "name": "stdout",
     "output_type": "stream",
     "text": [
      "train_model result: {'val_loss': 3858.173095703125, 'hp_metric': 3858.173095703125}\n",
      "config: {'l1': 8, 'epochs': 2048, 'batch_size': 2048, 'act_fn': Swish(), 'optimizer': 'Adamax', 'dropout_prob': 0.025, 'lr_mult': 10.0, 'patience': 128, 'batch_norm': False, 'initialization': 'kaiming_normal'}\n",
      "Loading model with 8_2048_2048_Swish_Adamax_0.025_10.0_128_False_kaiming_normal_TRAIN from runs/saved_models/8_2048_2048_Swish_Adamax_0.025_10.0_128_False_kaiming_normal_TRAIN/last.ckpt\n",
      "Model: NNLinearRegressor(\n",
      "  (layers): Sequential(\n",
      "    (0): Linear(in_features=10, out_features=8, bias=True)\n",
      "    (1): Swish()\n",
      "    (2): Dropout(p=0.025, inplace=False)\n",
      "    (3): Linear(in_features=8, out_features=4, bias=True)\n",
      "    (4): Swish()\n",
      "    (5): Dropout(p=0.025, inplace=False)\n",
      "    (6): Linear(in_features=4, out_features=4, bias=True)\n",
      "    (7): Swish()\n",
      "    (8): Dropout(p=0.025, inplace=False)\n",
      "    (9): Linear(in_features=4, out_features=2, bias=True)\n",
      "    (10): Swish()\n",
      "    (11): Dropout(p=0.025, inplace=False)\n",
      "    (12): Linear(in_features=2, out_features=2, bias=True)\n",
      "    (13): Swish()\n",
      "    (14): Dropout(p=0.025, inplace=False)\n",
      "    (15): Linear(in_features=2, out_features=2, bias=True)\n",
      "    (16): Swish()\n",
      "    (17): Dropout(p=0.025, inplace=False)\n",
      "    (18): Linear(in_features=2, out_features=1, bias=True)\n",
      "  )\n",
      ")\n",
      "Conductance analysis for layer:  Linear(in_features=2, out_features=1, bias=True)\n"
     ]
    },
    {
     "data": {
      "application/pdf": "…",
      "text/plain": [
       "<Figure size 1800x1800 with 1 Axes>"
      ]
     },
     "metadata": {},
     "output_type": "display_data"
    }
   ],
   "source": [
    "from spotpython.plot.xai import plot_conductance_last_layer, get_weights_conductance_last_layer\n",
…
