…
     "name": "stdout",
     "output_type": "stream",
     "text": [
      "config: {'l1': 128, 'epochs': 4096, 'batch_size': 2048, 'act_fn': ReLU(), 'optimizer': 'Adam', 'dropout_prob': 0.020311634799104406, 'lr_mult': 4.322386097111191, 'patience': 32, 'batch_norm': False, 'initialization': 'kaiming_uniform'}\n",
      "Loading model with 128_4096_2048_ReLU_Adam_0.0203_4.3224_32_False_kaiming_uniform_TEST from runs/saved_models/128_4096_2048_ReLU_Adam_0.0203_4.3224_32_False_kaiming_uniform_TEST/last.ckpt\n",
      "Model: NNLinearRegressor(\n",
      "  (layers): Sequential(\n",
      "    (0): Linear(in_features=10, out_features=128, bias=True)\n",
      "    (1): ReLU()\n",
      "    (2): Dropout(p=0.020311634799104406, inplace=False)\n",
      "    (3): Linear(in_features=128, out_features=64, bias=True)\n",
      "    (4): ReLU()\n",
      "    (5): Dropout(p=0.020311634799104406, inplace=False)\n",
      "    (6): Linear(in_features=64, out_features=64, bias=True)\n",
      "    (7): ReLU()\n",
      "    (8): Dropout(p=0.020311634799104406, inplace=False)\n",
      "    (9): Linear(in_features=64, out_features=32, bias=True)\n",
      "    (10): ReLU()\n",
      "    (11): Dropout(p=0.020311634799104406, inplace=False)\n",
      "    (12): Linear(in_features=32, out_features=32, bias=True)\n",
      "    (13): ReLU()\n",
      "    (14): Dropout(p=0.020311634799104406, inplace=False)\n",
      "    (15): Linear(in_features=32, out_features=32, bias=True)\n",
      "    (16): ReLU()\n",
      "    (17): Dropout(p=0.020311634799104406, inplace=False)\n",
      "    (18): Linear(in_features=32, out_features=16, bias=True)\n",
      "    (19): ReLU()\n",
      "    (20): Dropout(p=0.020311634799104406, inplace=False)\n",
      "    (21): Linear(in_features=16, out_features=16, bias=True)\n",
      "    (22): ReLU()\n",
      "    (23): Dropout(p=0.020311634799104406, inplace=False)\n",
      "    (24): Linear(in_features=16, out_features=16, bias=True)\n",
      "    (25): ReLU()\n",
      "    (26): Dropout(p=0.020311634799104406, inplace=False)\n",
      "    (27): Linear(in_features=16, out_features=16, bias=True)\n",
      "    (28): ReLU()\n",
      "    (29): Dropout(p=0.020311634799104406, inplace=False)\n",
      "    (30): Linear(in_features=16, out_features=1, bias=True)\n",
      "  )\n",
      ")\n"
     ]
    }
   ],
   "source": [
    "#| label: load_model_from_chkpt\n",
    "model = load_light_from_checkpoint(config, fun_control)"
   ]
  },
  {
   "cell_type": "markdown",
   "id": "dbf57588",
   "metadata": {},
   "source": [
    "#### Details of the Training Process on the Test Data\n",
    "\n",
    "* The `test_model` method initializes the model with the tuned architecture as follows:\n",
…
      "train_model result: {'val_loss': 3073.501220703125, 'hp_metric': 3073.501220703125}\n",
      "config: {'l1': 128, 'epochs': 4096, 'batch_size': 2048, 'act_fn': ReLU(), 'optimizer': 'Adam', 'dropout_prob': 0.020311634799104406, 'lr_mult': 4.322386097111191, 'patience': 32, 'batch_norm': False, 'initialization': 'kaiming_uniform'}\n",
      "Loading model with 128_4096_2048_ReLU_Adam_0.0203_4.3224_32_False_kaiming_uniform_TRAIN from runs/saved_models/128_4096_2048_ReLU_Adam_0.0203_4.3224_32_False_kaiming_uniform_TRAIN/last.ckpt\n",
      "Model: NNLinearRegressor(\n",
      "  (layers): Sequential(\n",
      "    (0): Linear(in_features=10, out_features=128, bias=True)\n",
      "    (1): ReLU()\n",
      "    (2): Dropout(p=0.020311634799104406, inplace=False)\n",
      "    (3): Linear(in_features=128, out_features=64, bias=True)\n",
      "    (4): ReLU()\n",
      "    (5): Dropout(p=0.020311634799104406, inplace=False)\n",
      "    (6): Linear(in_features=64, out_features=64, bias=True)\n",
      "    (7): ReLU()\n",
      "    (8): Dropout(p=0.020311634799104406, inplace=False)\n",
      "    (9): Linear(in_features=64, out_features=32, bias=True)\n",
      "    (10): ReLU()\n",
      "    (11): Dropout(p=0.020311634799104406, inplace=False)\n",
      "    (12): Linear(in_features=32, out_features=32, bias=True)\n",
      "    (13): ReLU()\n",
      "    (14): Dropout(p=0.020311634799104406, inplace=False)\n",
      "    (15): Linear(in_features=32, out_features=32, bias=True)\n",
      "    (16): ReLU()\n",
      "    (17): Dropout(p=0.020311634799104406, inplace=False)\n",
      "    (18): Linear(in_features=32, out_features=16, bias=True)\n",
      "    (19): ReLU()\n",
      "    (20): Dropout(p=0.020311634799104406, inplace=False)\n",
      "    (21): Linear(in_features=16, out_features=16, bias=True)\n",
      "    (22): ReLU()\n",
      "    (23): Dropout(p=0.020311634799104406, inplace=False)\n",
      "    (24): Linear(in_features=16, out_features=16, bias=True)\n",
      "    (25): ReLU()\n",
      "    (26): Dropout(p=0.020311634799104406, inplace=False)\n",
      "    (27): Linear(in_features=16, out_features=16, bias=True)\n",
      "    (28): ReLU()\n",
      "    (29): Dropout(p=0.020311634799104406, inplace=False)\n",
      "    (30): Linear(in_features=16, out_features=1, bias=True)\n",
      "  )\n",
      ")\n"
     ]
    },
    {
     "name": "stdout",
     "output_type": "stream",
     "text": [
      "train_model result: {'val_loss': 2838.6533203125, 'hp_metric': 2838.6533203125}\n",
      "config: {'l1': 128, 'epochs': 4096, 'batch_size': 2048, 'act_fn': ReLU(), 'optimizer': 'Adam', 'dropout_prob': 0.020311634799104406, 'lr_mult': 4.322386097111191, 'patience': 32, 'batch_norm': False, 'initialization': 'kaiming_uniform'}\n",
      "Loading model with 128_4096_2048_ReLU_Adam_0.0203_4.3224_32_False_kaiming_uniform_TRAIN from runs/saved_models/128_4096_2048_ReLU_Adam_0.0203_4.3224_32_False_kaiming_uniform_TRAIN/last.ckpt\n",
      "Model: NNLinearRegressor(\n",
      "  (layers): Sequential(\n",
      "    (0): Linear(in_features=10, out_features=128, bias=True)\n",
      "    (1): ReLU()\n",
      "    (2): Dropout(p=0.020311634799104406, inplace=False)\n",
      "    (3): Linear(in_features=128, out_features=64, bias=True)\n",
      "    (4): ReLU()\n",
      "    (5): Dropout(p=0.020311634799104406, inplace=False)\n",
      "    (6): Linear(in_features=64, out_features=64, bias=True)\n",
      "    (7): ReLU()\n",
      "    (8): Dropout(p=0.020311634799104406, inplace=False)\n",
      "    (9): Linear(in_features=64, out_features=32, bias=True)\n",
      "    (10): ReLU()\n",
      "    (11): Dropout(p=0.020311634799104406, inplace=False)\n",
      "    (12): Linear(in_features=32, out_features=32, bias=True)\n",
      "    (13): ReLU()\n",
      "    (14): Dropout(p=0.020311634799104406, inplace=False)\n",
      "    (15): Linear(in_features=32, out_features=32, bias=True)\n",
      "    (16): ReLU()\n",
      "    (17): Dropout(p=0.020311634799104406, inplace=False)\n",
      "    (18): Linear(in_features=32, out_features=16, bias=True)\n",
      "    (19): ReLU()\n",
      "    (20): Dropout(p=0.020311634799104406, inplace=False)\n",
      "    (21): Linear(in_features=16, out_features=16, bias=True)\n",
      "    (22): ReLU()\n",
      "    (23): Dropout(p=0.020311634799104406, inplace=False)\n",
      "    (24): Linear(in_features=16, out_features=16, bias=True)\n",
      "    (25): ReLU()\n",
      "    (26): Dropout(p=0.020311634799104406, inplace=False)\n",
      "    (27): Linear(in_features=16, out_features=16, bias=True)\n",
      "    (28): ReLU()\n",
      "    (29): Dropout(p=0.020311634799104406, inplace=False)\n",
      "    (30): Linear(in_features=16, out_features=1, bias=True)\n",
      "  )\n",
      ")\n",
      "Conductance analysis for layer:  Linear(in_features=16, out_features=1, bias=True)\n"
     ]
    },
    {
     "data": {
      "image/png": "…",
      "text/plain": [
       "<Figure size 576x576 with 1 Axes>"
      ]
     },
     "metadata": {
      "image/png": {
       "height": 528,
       "width": 530
      }
     },
…
