…
   "metadata": {},
   "outputs": [
    {
     "name": "stdout",
     "output_type": "stream",
     "text": [
      "config: {'l1': 32, 'epochs': 4096, 'batch_size': 1024, 'act_fn': ReLU(), 'optimizer': 'Adam', 'dropout_prob': 0.025, 'lr_mult': 2.553553499475551, 'patience': 64, 'batch_norm': False, 'initialization': 'kaiming_normal'}\n",
      "Loading model with 32_4096_1024_ReLU_Adam_0.025_2.5536_64_False_kaiming_normal_TEST from runs/saved_models/32_4096_1024_ReLU_Adam_0.025_2.5536_64_False_kaiming_normal_TEST/last.ckpt\n",
      "Model: NNLinearRegressor(\n",
      "  (layers): Sequential(\n",
      "    (0): Linear(in_features=10, out_features=32, bias=True)\n",
      "    (1): ReLU()\n",
      "    (2): Dropout(p=0.025, inplace=False)\n",
      "    (3): Linear(in_features=32, out_features=16, bias=True)\n",
      "    (4): ReLU()\n",
      "    (5): Dropout(p=0.025, inplace=False)\n",
      "    (6): Linear(in_features=16, out_features=16, bias=True)\n",
      "    (7): ReLU()\n",
      "    (8): Dropout(p=0.025, inplace=False)\n",
      "    (9): Linear(in_features=16, out_features=8, bias=True)\n",
      "    (10): ReLU()\n",
      "    (11): Dropout(p=0.025, inplace=False)\n",
      "    (12): Linear(in_features=8, out_features=8, bias=True)\n",
      "    (13): ReLU()\n",
      "    (14): Dropout(p=0.025, inplace=False)\n",
      "    (15): Linear(in_features=8, out_features=8, bias=True)\n",
      "    (16): ReLU()\n",
      "    (17): Dropout(p=0.025, inplace=False)\n",
      "    (18): Linear(in_features=8, out_features=4, bias=True)\n",
      "    (19): ReLU()\n",
      "    (20): Dropout(p=0.025, inplace=False)\n",
      "    (21): Linear(in_features=4, out_features=4, bias=True)\n",
      "    (22): ReLU()\n",
      "    (23): Dropout(p=0.025, inplace=False)\n",
      "    (24): Linear(in_features=4, out_features=4, bias=True)\n",
      "    (25): ReLU()\n",
      "    (26): Dropout(p=0.025, inplace=False)\n",
      "    (27): Linear(in_features=4, out_features=4, bias=True)\n",
      "    (28): ReLU()\n",
      "    (29): Dropout(p=0.025, inplace=False)\n",
      "    (30): Linear(in_features=4, out_features=2, bias=True)\n",
      "    (31): ReLU()\n",
      "    (32): Dropout(p=0.025, inplace=False)\n",
      "    (33): Linear(in_features=2, out_features=2, bias=True)\n",
      "    (34): ReLU()\n",
      "    (35): Dropout(p=0.025, inplace=False)\n",
      "    (36): Linear(in_features=2, out_features=2, bias=True)\n",
      "    (37): ReLU()\n",
      "    (38): Dropout(p=0.025, inplace=False)\n",
      "    (39): Linear(in_features=2, out_features=2, bias=True)\n",
      "    (40): ReLU()\n",
      "    (41): Dropout(p=0.025, inplace=False)\n",
      "    (42): Linear(in_features=2, out_features=1, bias=True)\n",
      "  )\n",
      ")\n"
     ]
    }
   ],
   "source": [
    "#| label: load_model_from_chkpt\n",
    "model = load_light_from_checkpoint(config, fun_control)"
   ]
  },
  {
   "cell_type": "markdown",
   "id": "8c95b342",
   "metadata": {},
   "source": [
    "#### Details of the Training Process on the Test Data\n",
    "\n",
    "* The `test_model` method initializes the model with the tuned architecture as follows:\n",
…
