…
    {
     "name": "stdout",
     "output_type": "stream",
     "text": [
      "config: {'l1': 32, 'epochs': 4096, 'batch_size': 256, 'act_fn': LeakyReLU(), 'optimizer': 'Adamax', 'dropout_prob': 0.025, 'lr_mult': 1.9375352248449356, 'patience': 256, 'batch_norm': False, 'initialization': 'xavier_normal'}\n",
      "Loading model with 32_4096_256_LeakyReLU_Adamax_0.025_1.9375_256_False_xavier_normal_TEST from runs/saved_models/32_4096_256_LeakyReLU_Adamax_0.025_1.9375_256_False_xavier_normal_TEST/last.ckpt\n",
      "Model: NNLinearRegressor(\n",
      "  (layers): Sequential(\n",
      "    (0): Linear(in_features=10, out_features=32, bias=True)\n",
      "    (1): LeakyReLU()\n",
      "    (2): Dropout(p=0.025, inplace=False)\n",
      "    (3): Linear(in_features=32, out_features=16, bias=True)\n",
      "    (4): LeakyReLU()\n",
      "    (5): Dropout(p=0.025, inplace=False)\n",
      "    (6): Linear(in_features=16, out_features=16, bias=True)\n",
      "    (7): LeakyReLU()\n",
      "    (8): Dropout(p=0.025, inplace=False)\n",
      "    (9): Linear(in_features=16, out_features=8, bias=True)\n",
      "    (10): LeakyReLU()\n",
      "    (11): Dropout(p=0.025, inplace=False)\n",
      "    (12): Linear(in_features=8, out_features=8, bias=True)\n",
      "    (13): LeakyReLU()\n",
      "    (14): Dropout(p=0.025, inplace=False)\n",
      "    (15): Linear(in_features=8, out_features=8, bias=True)\n",
      "    (16): LeakyReLU()\n",
      "    (17): Dropout(p=0.025, inplace=False)\n",
      "    (18): Linear(in_features=8, out_features=4, bias=True)\n",
      "    (19): LeakyReLU()\n",
      "    (20): Dropout(p=0.025, inplace=False)\n",
      "    (21): Linear(in_features=4, out_features=4, bias=True)\n",
      "    (22): LeakyReLU()\n",
      "    (23): Dropout(p=0.025, inplace=False)\n",
      "    (24): Linear(in_features=4, out_features=4, bias=True)\n",
      "    (25): LeakyReLU()\n",
      "    (26): Dropout(p=0.025, inplace=False)\n",
      "    (27): Linear(in_features=4, out_features=4, bias=True)\n",
      "    (28): LeakyReLU()\n",
      "    (29): Dropout(p=0.025, inplace=False)\n",
      "    (30): Linear(in_features=4, out_features=2, bias=True)\n",
      "    (31): LeakyReLU()\n",
      "    (32): Dropout(p=0.025, inplace=False)\n",
      "    (33): Linear(in_features=2, out_features=2, bias=True)\n",
      "    (34): LeakyReLU()\n",
      "    (35): Dropout(p=0.025, inplace=False)\n",
      "    (36): Linear(in_features=2, out_features=2, bias=True)\n",
      "    (37): LeakyReLU()\n",
      "    (38): Dropout(p=0.025, inplace=False)\n",
      "    (39): Linear(in_features=2, out_features=2, bias=True)\n",
      "    (40): LeakyReLU()\n",
      "    (41): Dropout(p=0.025, inplace=False)\n",
      "    (42): Linear(in_features=2, out_features=1, bias=True)\n",
      "  )\n",
      ")\n"
     ]
    }
   ],
   "source": [
    "#| label: load_model_from_chkpt\n",
    "model = load_light_from_checkpoint(config, fun_control)"
   ]
  },
  {
   "cell_type": "markdown",
   "id": "d2f22989",
   "metadata": {},
   "source": [
    "##### Details of the Training Process on the Test Data\n",
    "\n",
    "* The `test_model` method initializes the model with the tuned architecture as follows:\n",
…
      "train_model result: {'val_loss': 2994.139404296875, 'hp_metric': 2994.139404296875}\n",
      "config: {'l1': 32, 'epochs': 4096, 'batch_size': 256, 'act_fn': LeakyReLU(), 'optimizer': 'Adamax', 'dropout_prob': 0.025, 'lr_mult': 1.9375352248449356, 'patience': 256, 'batch_norm': False, 'initialization': 'xavier_normal'}\n",
      "Loading model with 32_4096_256_LeakyReLU_Adamax_0.025_1.9375_256_False_xavier_normal_TRAIN from runs/saved_models/32_4096_256_LeakyReLU_Adamax_0.025_1.9375_256_False_xavier_normal_TRAIN/last.ckpt\n",
      "Model: NNLinearRegressor(\n",
      "  (layers): Sequential(\n",
      "    (0): Linear(in_features=10, out_features=32, bias=True)\n",
      "    (1): LeakyReLU()\n",
      "    (2): Dropout(p=0.025, inplace=False)\n",
      "    (3): Linear(in_features=32, out_features=16, bias=True)\n",
      "    (4): LeakyReLU()\n",
      "    (5): Dropout(p=0.025, inplace=False)\n",
      "    (6): Linear(in_features=16, out_features=16, bias=True)\n",
      "    (7): LeakyReLU()\n",
      "    (8): Dropout(p=0.025, inplace=False)\n",
      "    (9): Linear(in_features=16, out_features=8, bias=True)\n",
      "    (10): LeakyReLU()\n",
      "    (11): Dropout(p=0.025, inplace=False)\n",
      "    (12): Linear(in_features=8, out_features=8, bias=True)\n",
      "    (13): LeakyReLU()\n",
      "    (14): Dropout(p=0.025, inplace=False)\n",
      "    (15): Linear(in_features=8, out_features=8, bias=True)\n",
      "    (16): LeakyReLU()\n",
      "    (17): Dropout(p=0.025, inplace=False)\n",
      "    (18): Linear(in_features=8, out_features=4, bias=True)\n",
      "    (19): LeakyReLU()\n",
      "    (20): Dropout(p=0.025, inplace=False)\n",
      "    (21): Linear(in_features=4, out_features=4, bias=True)\n",
      "    (22): LeakyReLU()\n",
      "    (23): Dropout(p=0.025, inplace=False)\n",
      "    (24): Linear(in_features=4, out_features=4, bias=True)\n",
      "    (25): LeakyReLU()\n",
      "    (26): Dropout(p=0.025, inplace=False)\n",
      "    (27): Linear(in_features=4, out_features=4, bias=True)\n",
      "    (28): LeakyReLU()\n",
      "    (29): Dropout(p=0.025, inplace=False)\n",
      "    (30): Linear(in_features=4, out_features=2, bias=True)\n",
      "    (31): LeakyReLU()\n",
      "    (32): Dropout(p=0.025, inplace=False)\n",
      "    (33): Linear(in_features=2, out_features=2, bias=True)\n",
      "    (34): LeakyReLU()\n",
      "    (35): Dropout(p=0.025, inplace=False)\n",
      "    (36): Linear(in_features=2, out_features=2, bias=True)\n",
      "    (37): LeakyReLU()\n",
      "    (38): Dropout(p=0.025, inplace=False)\n",
      "    (39): Linear(in_features=2, out_features=2, bias=True)\n",
      "    (40): LeakyReLU()\n",
      "    (41): Dropout(p=0.025, inplace=False)\n",
      "    (42): Linear(in_features=2, out_features=1, bias=True)\n",
      "  )\n",
      ")\n"
     ]
    },
    {
     "name": "stdout",
     "output_type": "stream",
     "text": [
      "train_model result: {'val_loss': 2892.18212890625, 'hp_metric': 2892.18212890625}\n",
      "config: {'l1': 32, 'epochs': 4096, 'batch_size': 256, 'act_fn': LeakyReLU(), 'optimizer': 'Adamax', 'dropout_prob': 0.025, 'lr_mult': 1.9375352248449356, 'patience': 256, 'batch_norm': False, 'initialization': 'xavier_normal'}\n",
      "Loading model with 32_4096_256_LeakyReLU_Adamax_0.025_1.9375_256_False_xavier_normal_TRAIN from runs/saved_models/32_4096_256_LeakyReLU_Adamax_0.025_1.9375_256_False_xavier_normal_TRAIN/last.ckpt\n",
      "Model: NNLinearRegressor(\n",
      "  (layers): Sequential(\n",
      "    (0): Linear(in_features=10, out_features=32, bias=True)\n",
      "    (1): LeakyReLU()\n",
      "    (2): Dropout(p=0.025, inplace=False)\n",
      "    (3): Linear(in_features=32, out_features=16, bias=True)\n",
      "    (4): LeakyReLU()\n",
      "    (5): Dropout(p=0.025, inplace=False)\n",
      "    (6): Linear(in_features=16, out_features=16, bias=True)\n",
      "    (7): LeakyReLU()\n",
      "    (8): Dropout(p=0.025, inplace=False)\n",
      "    (9): Linear(in_features=16, out_features=8, bias=True)\n",
      "    (10): LeakyReLU()\n",
      "    (11): Dropout(p=0.025, inplace=False)\n",
      "    (12): Linear(in_features=8, out_features=8, bias=True)\n",
      "    (13): LeakyReLU()\n",
      "    (14): Dropout(p=0.025, inplace=False)\n",
      "    (15): Linear(in_features=8, out_features=8, bias=True)\n",
      "    (16): LeakyReLU()\n",
      "    (17): Dropout(p=0.025, inplace=False)\n",
      "    (18): Linear(in_features=8, out_features=4, bias=True)\n",
      "    (19): LeakyReLU()\n",
      "    (20): Dropout(p=0.025, inplace=False)\n",
      "    (21): Linear(in_features=4, out_features=4, bias=True)\n",
      "    (22): LeakyReLU()\n",
      "    (23): Dropout(p=0.025, inplace=False)\n",
      "    (24): Linear(in_features=4, out_features=4, bias=True)\n",
      "    (25): LeakyReLU()\n",
      "    (26): Dropout(p=0.025, inplace=False)\n",
      "    (27): Linear(in_features=4, out_features=4, bias=True)\n",
      "    (28): LeakyReLU()\n",
      "    (29): Dropout(p=0.025, inplace=False)\n",
      "    (30): Linear(in_features=4, out_features=2, bias=True)\n",
      "    (31): LeakyReLU()\n",
      "    (32): Dropout(p=0.025, inplace=False)\n",
      "    (33): Linear(in_features=2, out_features=2, bias=True)\n",
      "    (34): LeakyReLU()\n",
      "    (35): Dropout(p=0.025, inplace=False)\n",
      "    (36): Linear(in_features=2, out_features=2, bias=True)\n",
      "    (37): LeakyReLU()\n",
      "    (38): Dropout(p=0.025, inplace=False)\n",
      "    (39): Linear(in_features=2, out_features=2, bias=True)\n",
      "    (40): LeakyReLU()\n",
      "    (41): Dropout(p=0.025, inplace=False)\n",
      "    (42): Linear(in_features=2, out_features=1, bias=True)\n",
      "  )\n",
      ")\n",
      "Conductance analysis for layer:  Linear(in_features=2, out_features=1, bias=True)\n"
     ]
    },
    {
     "data": {
      "application/pdf": "…",
      "text/plain": [
       "<Figure size 1800x1800 with 1 Axes>"
      ]
     },
     "metadata": {},
     "output_type": "display_data"
    }
   ],
   "source": [
    "#| label: get_conductance\n",
…
