…
     "name": "stdout",
     "output_type": "stream",
     "text": [
      "config: {'l1': 16, 'epochs': 32, 'batch_size': 64, 'act_fn': LeakyReLU(), 'optimizer': 'Adadelta', 'dropout_prob': 0.024999427371776895, 'lr_mult': 3.1577462928629245, 'patience': 4, 'batch_norm': False, 'initialization': 'xavier_uniform'}\n",
      "Loading model with 16_32_64_LeakyReLU_Adadelta_0.025_3.1577_4_False_xavier_uniform_TEST from runs/saved_models/16_32_64_LeakyReLU_Adadelta_0.025_3.1577_4_False_xavier_uniform_TEST/last.ckpt\n",
      "Model: NNLinearRegressor(\n",
      "  (layers): Sequential(\n",
      "    (0): Linear(in_features=10, out_features=16, bias=True)\n",
      "    (1): LeakyReLU()\n",
      "    (2): Dropout(p=0.024999427371776895, inplace=False)\n",
      "    (3): Linear(in_features=16, out_features=8, bias=True)\n",
      "    (4): LeakyReLU()\n",
      "    (5): Dropout(p=0.024999427371776895, inplace=False)\n",
      "    (6): Linear(in_features=8, out_features=8, bias=True)\n",
      "    (7): LeakyReLU()\n",
      "    (8): Dropout(p=0.024999427371776895, inplace=False)\n",
      "    (9): Linear(in_features=8, out_features=4, bias=True)\n",
      "    (10): LeakyReLU()\n",
      "    (11): Dropout(p=0.024999427371776895, inplace=False)\n",
      "    (12): Linear(in_features=4, out_features=4, bias=True)\n",
      "    (13): LeakyReLU()\n",
      "    (14): Dropout(p=0.024999427371776895, inplace=False)\n",
      "    (15): Linear(in_features=4, out_features=4, bias=True)\n",
      "    (16): LeakyReLU()\n",
      "    (17): Dropout(p=0.024999427371776895, inplace=False)\n",
      "    (18): Linear(in_features=4, out_features=2, bias=True)\n",
      "    (19): LeakyReLU()\n",
      "    (20): Dropout(p=0.024999427371776895, inplace=False)\n",
      "    (21): Linear(in_features=2, out_features=2, bias=True)\n",
      "    (22): LeakyReLU()\n",
      "    (23): Dropout(p=0.024999427371776895, inplace=False)\n",
      "    (24): Linear(in_features=2, out_features=2, bias=True)\n",
      "    (25): LeakyReLU()\n",
      "    (26): Dropout(p=0.024999427371776895, inplace=False)\n",
      "    (27): Linear(in_features=2, out_features=2, bias=True)\n",
      "    (28): LeakyReLU()\n",
      "    (29): Dropout(p=0.024999427371776895, inplace=False)\n",
      "    (30): Linear(in_features=2, out_features=1, bias=True)\n",
      "  )\n",
      ")\n"
     ]
    }
   ],
   "source": [
    "from spotpython.light.loadmodel import load_light_from_checkpoint\n",
    "model_loaded = load_light_from_checkpoint(config, fun_control)"
   ]
  },
  {
   "cell_type": "code",
   "execution_count": 22,
   "id": "657812be",
   "metadata": {},
   "outputs": [
    {
     "data": {
      "text/plain": [
…
