…
75)\n\n\n\n\n31.3.2 Load a Model from Checkpoint\n\nfrom spotPython.light.loadmodel import load_light_from_checkpoint\nmodel_loaded = load_light_from_checkpoint(config, fun_control)\n\nconfig: {'l1': 128, 'epochs': 32, 'batch_size': 16, 'act_fn': ReLU(), 'optimizer': 'RAdam', 'dropout_prob': 0.09699240513877071, 'lr_mult': 0.9054114496467818, 'patience': 8, 'initialization': 'Default'}\nLoading model with 128_32_16_ReLU_RAdam_0.097_0.9054_8_Default_TEST from runs/saved_models/128_32_16_ReLU_RAdam_0.097_0.9054_8_Default_TEST/last.ckpt\nModel: NetLightRegression(\n  (layers): Sequential(\n    (0): Linear(in_features=10, out_features=128, bias=True)\n    (1): BatchNorm1d(128, eps=1e-05, momentum=0.1, affine=True, track_running_stats=True)\n    (2): ReLU()\n    (3): Dropout(p=0.09699240513877071, inplace=False)\n    (4): Linear(in_features=128, out_features=64, bias=True)\n    (5): BatchNorm1d(64, eps=1e-05, momentum=0.1, affine=True, track_running_stats=True)\n    (6): ReLU()\n    (7): Dropout(p=0.09699240513877071, inplace=False)\n    (8): Linear(in_features=64, out_features=64, bias=True)\n    (9): BatchNorm1d(64, eps=1e-05, momentum=0.1, affine=True, track_running_stats=True)\n    (10): ReLU()\n    (11): Dropout(p=0.09699240513877071, inplace=False)\n    (12): Linear(in_features=64, out_features=32, bias=True)\n    (13): BatchNorm1d(32, eps=1e-05, momentum=0.1, affine=True, track_running_stats=True)\n    (14): ReLU()\n    (15): Dropout(p=0.09699240513877071, inplace=False)\n    (16): Linear(in_features=32, out_features=1, bias=True)\n  )\n)\n\n\n\nvars(model_loaded)\n\n{'training': False,\n '_parameters': OrderedDict(),\n '_buffers': OrderedDict(),\n '_non_persistent_buffers_set': set(),\n '_backward_pre_hooks': OrderedDict(),\n '_backward_hooks': OrderedDict(),\n '_is_full_backward_hook': None,\n '_forward_hooks': OrderedDict(),\n '_forward_hooks_with_kwargs': OrderedDict(),\n '_forward_hooks_always_called': OrderedDict(),\n '_forward_pre_hooks': OrderedDict(),\n '_forward_pre_hooks_with_kwargs': OrderedDict(),\n '_state_dict_hooks': OrderedDict(),\n '_state_dict_pre_hooks': OrderedDict(),\n '_load_state_dict_pre_hooks': OrderedDict(),\n '_load_state_dict_post_hooks': OrderedDict(),\n '_modules': OrderedDict([('layers',\n               Sequential(\n                 (0): Linear(in_features=10, out_features=128, bias=True)\n                 (1): BatchNorm1d(128, eps=1e-05, momentum=0.1, affine=True, track_running_stats=True)\n                 (2): ReLU()\n                 (3): Dropout(p=0.09699240513877071, inplace=False)\n                 (4): Linear(in_features=128, out_features=64, bias=True)\n                 (5): BatchNorm1d(64, eps=1e-05, momentum=0.1, affine=True, track_running_stats=True)\n                 (6): ReLU()\n                 (7): Dropout(p=0.09699240513877071, inplace=False)\n                 (8): Linear(in_features=64, out_features=64, bias=True)\n                 (9): BatchNorm1d(64, eps=1e-05, momentum=0.1, affine=True, track_running_stats=True)\n                 (10): ReLU()\n                 (11): Dropout(p=0.09699240513877071, inplace=False)\n                 (12): Linear(in_features=64, out_features=32, bias=True)\n                 (13): BatchNorm1d(32, eps=1e-05, momentum=0.1, affine=True, track_running_stats=True)\n                 (14): ReLU()\n                 (15): Dropout(p=0.09699240513877071, inplace=False)\n                 (16): Linear(in_features=32, out_features=1, bias=True)\n               ))]),\n 'prepare_data_per_node': True,\n 'allow_zero_length_dataloader_with_multiple_devices': False,\n '_log_hyperparams': True,\n '_dtype': torch.float32,\n '_device': device(type='mps', index=0),\n '_trainer': None,\n '_example_input_array': tensor([[0., 0., 0., 0., 0., 0., 0., 0., 0., 0.],\n         [0., 0., 0., 0., 0., 0., 0., 0., 0.,
…
 set(),\n '_backward_pre_hooks': OrderedDict(),\n '_backward_hooks': OrderedDict(),\n '_is_full_backward_hook': None,\n '_forward_hooks': OrderedDict(),\n '_forward_hooks_with_kwargs': OrderedDict(),\n '_forward_hooks_always_called': OrderedDict(),\n '_forward_pre_hooks': OrderedDict(),\n '_forward_pre_hooks_with_kwargs': OrderedDict(),\n '_state_dict_hooks': OrderedDict(),\n '_state_dict_pre_hooks': OrderedDict(),\n '_load_state_dict_pre_hooks': OrderedDict(),\n '_load_state_dict_post_hooks': OrderedDict(),\n '_modules': OrderedDict([('layers',\n               Sequential(\n                 (0): Linear(in_features=10, out_features=128, bias=True)\n                 (1): BatchNorm1d(128, eps=1e-05, momentum=0.1, affine=True, track_running_stats=True)\n                 (2): ReLU()\n                 (3): Dropout(p=0.09699240513877071, inplace=False)\n                 (4): Linear(in_features=128, out_features=64, bias=True)\n                 (5): BatchNorm1d(64, eps=1e-05, momentum=0.1, affine=True, track_running_stats=True)\n                 (6): ReLU()\n                 (7): Dropout(p=0.09699240513877071, inplace=False)\n                 (8): Linear(in_features=64, out_features=64, bias=True)\n                 (9): BatchNorm1d(64, eps=1e-05, momentum=0.1, affine=True, track_running_stats=True)\n                 (10): ReLU()\n                 (11): Dropout(p=0.09699240513877071, inplace=False)\n                 (12): Linear(in_features=64, out_features=32, bias=True)\n                 (13): BatchNorm1d(32, eps=1e-05, momentum=0.1, affine=True, track_running_stats=True)\n                 (14): ReLU()\n                 (15): Dropout(p=0.09699240513877071, inplace=False)\n                 (16): Linear(in_features=32, out_features=1, bias=True)\n               ))]),\n 'prepare_data_per_node': True,\n 'allow_zero_length_dataloader_with_multiple_devices': False,\n '_log_hyperparams': True,\n '_dtype': torch.float32,\n '_device': device(type='mps', index=0),\n '_trainer': None,\n '_example_input_array': tensor([[0., 0., 0., 0., 0., 0., 0., 0., 0., 0.],\n         [0., 0., 0., 0., 0., 0., 0., 0., 0.,
…
: None, '_fabric_optimizers': [], '_dtype': torch.float32, '_torchmetric': 'mean_squared_error', '_hparams_initial': \"act_fn\":         ReLU()\n\"batch_size\":     16\n\"dropout_prob\":   0.09699240513877071\n\"epochs\":         32\n\"initialization\": Default\n\"l1\":             128\n\"lr_mult\":        0.9054114496467818\n\"optimizer\":      RAdam\n\"patience\":       8, 'allow_zero_length_dataloader_with_multiple_devices': False, '_L_in': 10, '_compiler_ctx': None, '_automatic_optimization': True, '_L_out': 1}\n\n\n\nprint(torch_net)\n\nNetLightRegression(\n  (layers): Sequential(\n    (0): Linear(in_features=10, out_features=128, bias=True)\n    (1): BatchNorm1d(128, eps=1e-05, momentum=0.1, affine=True, track_running_stats=True)\n    (2): ReLU()\n    (3): Dropout(p=0.09699240513877071, inplace=False)\n    (4): Linear(in_features=128, out_features=64, bias=True)\n    (5): BatchNorm1d(64, eps=1e-05, momentum=0.1, affine=True, track_running_stats=True)\n    (6): ReLU()\n    (7): Dropout(p=0.09699240513877071, inplace=False)\n    (8): Linear(in_features=64, out_features=64, bias=True)\n    (9): BatchNorm1d(64, eps=1e-05, momentum=0.1, affine=True, track_running_stats=True)\n    (10): ReLU()\n    (11): Dropout(p=0.09699240513877071, inplace=False)\n    (12): Linear(in_features=64, out_features=32, bias=True)\n    (13): BatchNorm1d(32, eps=1e-05, momentum=0.1, affine=True, track_running_stats=True)\n    (14): ReLU()\n    (15): Dropout(p=0.09699240513877071, inplace=False)\n    (16): Linear(in_features=32, out_features=1, bias=True)\n  )\n)\n\n\n\n\n31.4.2 An Example how to use the Plain Torch Net\n\nimport torch\nimport torch.nn as nn\nimport torch.optim as optim\nfrom torch.utils.data import DataLoader, TensorDataset\nfrom sklearn.datasets import load_diabetes\nfrom sklearn.model_selection import train_test_split\nfrom sklearn.preprocessing import StandardScaler\nimport matplotlib.
…
