…
n(5182.69677734375, 5182.69677734375)\n\n\n\nfrom spotPython.light.loadmodel import load_light_from_checkpoint\n\nmodel_loaded = load_light_from_checkpoint(config, fun_control)\n\nconfig: {'l1': 16, 'epochs': 1024, 'batch_size': 32, 'act_fn': ReLU(), 'optimizer': 'RAdam', 'dropout_prob': 0.035501708617280955, 'lr_mult': 4.785884240333345, 'patience': 32, 'initialization': 'Xavier'}\nLoading model with 16_1024_32_ReLU_RAdam_0.0355_4.7859_32_Xavier_TEST from runs/saved_models/16_1024_32_ReLU_RAdam_0.0355_4.7859_32_Xavier_TEST/last.ckpt\nModel: NetLightRegression(\n  (layers): Sequential(\n    (0): Linear(in_features=10, out_features=16, bias=True)\n    (1): ReLU()\n    (2): Dropout(p=0.035501708617280955, inplace=False)\n    (3): Linear(in_features=16, out_features=8, bias=True)\n    (4): ReLU()\n    (5): Dropout(p=0.035501708617280955, inplace=False)\n    (6): Linear(in_features=8, out_features=8, bias=True)\n    (7): ReLU()\n    (8): Dropout(p=0.035501708617280955, inplace=False)\n    (9): Linear(in_features=8, out_features=4, bias=True)\n    (10): ReLU()\n    (11): Dropout(p=0.035501708617280955, inplace=False)\n    (12): Linear(in_features=4, out_features=1, bias=True)\n  )\n)\n\n\n\nfilename = \"./figures/\" + PREFIX\nspot_tuner.plot_important_hyperparameter_contour(filename=filename)\n\noptimizer:  5.908494188230902\ndropout_prob:  0.22091969066388112\nlr_mult:  0.47511397831051283\npatience:  0.25379994779108417\ninitialization:  99.99999999999999\nimpo: [['l1', 0.0023743850072928865], ['epochs', 0.008752907271165669]
…
f images, and plots the histogram of the activations inside the network:\n\nfrom spotPython.torch.activation import Sigmoid, Tanh, ReLU, LeakyReLU, ELU, Swish\nact_fn_by_name = {\"sigmoid\": Sigmoid, \"tanh\": Tanh, \"relu\": ReLU, \"leakyrelu\": LeakyReLU, \"elu\": ELU, \"swish\": Swish}\n\n\nfrom spotPython.hyperparameters.values import get_one_config_from_X\nX = spot_tuner.to_all_dim(spot_tuner.min_X.reshape(1,-1))\nconfig = get_one_config_from_X(X, fun_control)\nmodel = fun_control[\"core_model\"](**config, _L_in=64, _L_out=11)\nmodel\n\nNetLightRegression(\n  (layers): Sequential(\n    (0): Linear(in_features=64, out_features=16, bias=True)\n    (1): ReLU()\n    (2): Dropout(p=0.035501708617280955, inplace=False)\n    (3): Linear(in_features=16, out_features=8, bias=True)\n    (4): ReLU()\n    (5): Dropout(p=0.035501708617280955, inplace=False)\n    (6): Linear(in_features=8, out_features=8, bias=True)\n    (7): ReLU()\n    (8): Dropout(p=0.035501708617280955, inplace=False)\n    (9): Linear(in_features=8, out_features=4, bias=True)\n    (10): ReLU()\n    (11): Dropout(p=0.035501708617280955, inplace=False)\n    (12): Linear(in_features=4, out_features=11, bias=True)\n  )\n)\n\n\n\n# from spotPython.utils.eda import visualize_activations\n# visualize_activations(model, color=f\"C{0}\")",
    "crumbs": [
      "Hyperparameter Tuning with PyTorch Lightning",
      "<span class='chapter-number'>23</span>  <span class='chapter-title'>HPT PyTorch Lightning: Diabetes</span>"
    ]
  },
  {
    "objectID": "032_spot_lightning_rnn_diabetes.html",
…
6611328, 25.852802276611328)\n\n\n\nfrom spotPython.light.loadmodel import load_light_from_checkpoint\n\nmodel_loaded = load_light_from_checkpoint(config, fun_control)\n\nconfig: {'l1': 16, 'epochs': 8, 'batch_size': 16, 'act_fn': LeakyReLU(), 'optimizer': 'Adamax', 'dropout_prob': 0.019641823176285617, 'lr_mult': 3.537067177180294, 'patience': 8, 'initialization': 'Default'}\nLoading model with 16_8_16_LeakyReLU_Adamax_0.0196_3.5371_8_Default_TEST from runs/saved_models/16_8_16_LeakyReLU_Adamax_0.0196_3.5371_8_Default_TEST/last.ckpt\nModel: NetLightRegression(\n  (layers): Sequential(\n    (0): Linear(in_features=6, out_features=16, bias=True)\n    (1): LeakyReLU()\n    (2): Dropout(p=0.019641823176285617, inplace=False)\n    (3): Linear(in_features=16, out_features=8, bias=True)\n    (4): LeakyReLU()\n    (5): Dropout(p=0.019641823176285617, inplace=False)\n    (6): Linear(in_features=8, out_features=8, bias=True)\n    (7): LeakyReLU()\n    (8): Dropout(p=0.019641823176285617, inplace=False)\n    (9): Linear(in_features=8, out_features=4, bias=True)\n    (10): LeakyReLU()\n    (11): Dropout(p=0.019641823176285617, inplace=False)\n    (12): Linear(in_features=4, out_features=1, bias=True)\n  )\n)\n\n\n\nfilename = \"./figures/\" + PREFIX\nspot_tuner.plot_important_hyperparameter_contour(filename=filename)\n\nl1:  100.0\nact_fn:  0.05127949950884306\noptimizer:  0.036389675225087334\nimpo: [['l1', 100.0], ['epochs', 0.0014423222599760528], ['batch_size', 0.0014423222599760528], ['act_fn', 0.05127949950884306], ['optimizer', 0.036389675225087
…
f images, and plots the histogram of the activations inside the network:\n\nfrom spotPython.torch.activation import Sigmoid, Tanh, ReLU, LeakyReLU, ELU, Swish\nact_fn_by_name = {\"sigmoid\": Sigmoid, \"tanh\": Tanh, \"relu\": ReLU, \"leakyrelu\": LeakyReLU, \"elu\": ELU, \"swish\": Swish}\n\n\nfrom spotPython.hyperparameters.values import get_one_config_from_X\nX = spot_tuner.to_all_dim(spot_tuner.min_X.reshape(1,-1))\nconfig = get_one_config_from_X(X, fun_control)\nmodel = fun_control[\"core_model\"](**config, _L_in=64, _L_out=11)\nmodel\n\nNetLightRegression(\n  (layers): Sequential(\n    (0): Linear(in_features=64, out_features=16, bias=True)\n    (1): LeakyReLU()\n    (2): Dropout(p=0.019641823176285617, inplace=False)\n    (3): Linear(in_features=16, out_features=8, bias=True)\n    (4): LeakyReLU()\n    (5): Dropout(p=0.019641823176285617, inplace=False)\n    (6): Linear(in_features=8, out_features=8, bias=True)\n    (7): LeakyReLU()\n    (8): Dropout(p=0.019641823176285617, inplace=False)\n    (9): Linear(in_features=8, out_features=4, bias=True)\n    (10): LeakyReLU()\n    (11): Dropout(p=0.019641823176285617, inplace=False)\n    (12): Linear(in_features=4, out_features=11, bias=True)\n  )\n)\n\n\n\n# from spotPython.utils.eda import visualize_activations\n# visualize_activations(model, color=f\"C{0}\")",
    "crumbs": [
      "Hyperparameter Tuning with PyTorch Lightning",
      "<span class='chapter-number'>24</span>  <span class='chapter-title'>HPT PyTorch Lightning: User Specified Data Set and Regression Model</span>"
    ]
  },
  {
…
     core_model=NetLightRegression,\n                              hyper_dict=LightHyperDict)\nX = get_default_hyperparameters_as_array(fun_control)\nconfig = get_one_config_from_X(X, fun_control)\n_L_in = fun_control[\"_L_in\"]\n_L_out = fun_control[\"_L_out\"]\nmodel = fun_control[\"core_model\"](**config, _L_in=_L_in, _L_out=_L_out)\nbatch_size= config[\"batch_size\"]\ndataloader = DataLoader(dataset, batch_size=batch_size, shuffle=False)\n\n\nget_activations(model, fun_control=fun_control, batch_size=batch_size, device = \"cpu\")\n\nnet: NetLightRegression(\n  (layers): Sequential(\n    (0): Linear(in_features=10, out_features=8, bias=True)\n    (1): ReLU()\n    (2): Dropout(p=0.01, inplace=False)\n    (3): Linear(in_features=8, out_features=4, bias=True)\n    (4): ReLU()\n    (5): Dropout(p=0.01, inplace=False)\n    (6): Linear(in_features=4, out_features=4, bias=True)\n    (7): ReLU()\n    (8): Dropout(p=0.01, inplace=False)\n    (9): Linear(in_features=4, out_features=2, bias=True)\n    (10): ReLU()\n    (11): Dropout(p=0.01, inplace=False)\n    (12): Linear(in_features=2, out_features=1, bias=True)\n  )\n)\n\n\n{0: array([ 1.43207282e-01,  6.29712082e-03,  1.04200497e-01, -3.79188173e-03,\n        -1.74976081e-01, -7.97475874e-02, -2.00860098e-01,  2.48444736e-01,\n         1.42530382e-01, -2.86847632e-03,  3.61538231e-02, -5.21567538e-02,\n        -2.15294853e-01, -1.26742452e-01, -1.79230243e-01,  2.73077697e-01,\n         1.36738747e-01,  8.579001
…
,\n         0.39540154, -0.20208222,  0.13140953,  0.00280607, -0.3760708 ,\n        -0.12140697, -0.33391154,  0.22107768,  0.04494798,  0.04898232,\n        -0.15168536], dtype=float32),\n 'Layer 9': array([ 0.07573527, -0.22145915, -0.30541402,  0.03821951, -0.3709231 ,\n        -0.3758251 , -0.3254385 , -0.1698224 ], dtype=float32),\n 'Layer 12': array([0.2738903, 0.5417278], dtype=float32)}\n\n\n\nvisualize_activations(model, fun_control=fun_control, batch_size=batch_size, device = \"cpu\", cmap=\"BlueWhiteRed\", absolute=False)\n\nnet: NetLightRegression(\n  (layers): Sequential(\n    (0): Linear(in_features=10, out_features=8, bias=True)\n    (1): ReLU()\n    (2): Dropout(p=0.01, inplace=False)\n    (3): Linear(in_features=8, out_features=4, bias=True)\n    (4): ReLU()\n    (5): Dropout(p=0.01, inplace=False)\n    (6): Linear(in_features=4, out_features=4, bias=True)\n    (7): ReLU()\n    (8): Dropout(p=0.01, inplace=False)\n    (9): Linear(in_features=4, out_features=2, bias=True)\n    (10): ReLU()\n    (11): Dropout(p=0.01, inplace=False)\n    (12): Linear(in_features=2, out_features=1, bias=True)\n  )\n)\n\n\n\n\n\n\n\n\n\n\n\n\n\n\n\n\n\n\n\n\n\n\n\n\n\n\n\n\n\n\n\n\n\n\n\n\n\n\nvisualize_weights_distributions(model, color=f\"C{0}\")\n\nn:5\n\n\n\n\n\n\n\n\n\n\nvisualize_gradient_distributions(model, fun_control, batch_size=batch_size, color=f\"C{0}\")\n\nn:5\n\n\n\n\n\n\n\n\n\n\nvisualize_weights(model, absolute=True, cmap=\"gray\", figsize=(6, 6))\n\n\n\n\n\n\n\n\n\n\n\n\n\n\n\n\n\n\n\n\n\n\n\n\n\n\n\n\n\n\n\n\n\n\n\n\n\nvisualize_gradients(model, fun_control, batch_size, absolute=True, cmap=\"BlueWhiteRed\", figsize=(6, 6))\n\n\n\n\n\n\n\n\n\n\n\n\n\n\n\n\n\n\n\n\n\n\n\n\n\n\n\n\n\n\n\n\n\n\n\n\n\nvisualize_activations(model, fun_control=fun_control, batch_size=batch_size, device = \"cpu\")\n\nnet: NetLightRegression(\n  (layers): Sequential(\n    (0): Linear(in_features=10, out_features=8, bias=True)\n    (1): ReLU()\n    (2): Dropout(p=0.01, inplace=False)\n    (3): Linear(in_features=8, out_features=4, bias=True)\n    (4): ReLU()\n    (5): Dropout(p=0.01, inplace=False)\n    (6): Linear(in_features=4, out_features=4, bias=True)\n    (7): ReLU()\n    (8): Dropout(p=0.01, inplace=False)\n    (9): Linear(in_features=4, out_features=2, bias=True)\n    (10): ReLU()\n    (11): Dropout(p=0.01, inplace=False)\n    (12): Linear(in_features=2, out_features=1, bias=True)\n  )\n)\n\n\n\n\n\n\n\n\n\n\n\n\n\n\n\n\n\n\n\n\n\n\n\n\n\n\n\n\n\n\n\n\n\n\n\n\n\n\nvisualize_activations(model, fun_control=fun_control, batch_size=batch_size, device = \"cpu\")\n\nnet: NetLightRegression(\n  (layers): Sequential(\n    (0): Linear(in_features=10, out_features=8, bias=True)\n    (1): ReLU()\n    (2): Dropout(p=0.01, inplace=False)\n    (3): Linear(in_features=8, out_features=4, bias=True)\n    (4): ReLU()\n    (5): Dropout(p=0.01, inplace=False)\n    (6): Linear(in_features=4, out_features=4, bias=True)\n    (7): ReLU()\n    (8): Dropout(p=0.01, inplace=False)\n    (9): Linear(in_features=4, out_features=2, bias=True)\n    (10): ReLU()\n    (11): Dropout(p=0.01, inplace=False)\n    (12): Linear(in_features=2, out_features=1, bias=True)\n  )\n)",
    "crumbs": [
      "Hyperparameter Tuning with PyTorch Lightning",
      "<span class='chapter-number'>25</span>  <span class='chapter-title'>Explainable AI with SpotPython and Pytorch</span>"
    ]
  },
  {
    "objectID": "035_spot_lightning_transformer_introduction.html",
    "href": "035_spot_lightning_transformer_introduction.html",
    "title": "26  HPT PyTorch Lightning Transformer: Introduction",
…
