…
n        return loss\n\n    def predict_step(self, batch, batch_idx, dataloader_idx=0):\n        x, _ = batch\n        y_hat = self.layers(x)\n        return y_hat\n\n    def configure_optimizers(self):\n        return torch.optim.Adam(self.layers.parameters(), lr=0.02)\n\nWe can instantiate the LightningBasic class as follows:\n\nmodel_base = LightningBasic(\n    l1=20,\n    act_fn=nn.ReLU(),\n    dropout_prob=0.01,\n    _L_in=10,\n    _L_out=1,\n    _torchmetric=\"mean_squared_error\")\n\nIt has the following structure:\n\nprint(model_base)\n\nLightningBasic(\n  (layers): Sequential(\n    (0): Linear(in_features=10, out_features=20, bias=True)\n    (1): ReLU()\n    (2): Dropout(p=0.01, inplace=False)\n    (3): Linear(in_features=20, out_features=10, bias=True)\n    (4): ReLU()\n    (5): Dropout(p=0.01, inplace=False)\n    (6): Linear(in_features=10, out_features=10, bias=True)\n    (7): ReLU()\n    (8): Dropout(p=0.01, inplace=False)\n    (9): Linear(in_features=10, out_features=5, bias=True)\n    (10): ReLU()\n    (11): Dropout(p=0.01, inplace=False)\n    (12): Linear(in_features=5, out_features=1, bias=True)\n  )\n)\n\n\n\nfrom spotpython.plot.xai import viz_net\nviz_net(net=model_base,\n    device=\"cpu\",\n    filename=\"model_architecture700\", format=\"png\")\n\n\n\n\nModel architecture\n\n\n\n\n31.5.4 The Data Set: Diabetes\nWe will use the Diabetes [DOC] data set from the spotpython package, which is a PyTorch Dataset for regression based on a data set f
…
 _ in range(num_blocks)])  # List of ResNet blocks\n        self.output_layer = nn.Linear(hidden_dim, output_dim)  # Output layer for regression\n        \n    def forward(self, x):\n        x = self.input_layer(x)  # Apply input layer\n        for block in self.blocks:\n            x = block(x)  # Apply each block\n        x = self.output_layer(x)  # Get final output\n        return x\n\n\ninput_dim = 10\noutput_dim = 1\nhidden_dim = 64\nmodel = ResNetRegression(input_dim, output_dim, ResNetBlock, num_blocks=2, hidden_dim=hidden_dim, act_fn=nn.ReLU)\nmodel\n\nResNetRegression(\n  (input_layer): Linear(in_features=10, out_features=64, bias=True)\n  (blocks): ModuleList(\n    (0-1): 2 x ResNetBlock(\n      (net): Sequential(\n        (0): Linear(in_features=64, out_features=64, bias=False)\n        (1): BatchNorm1d(64, eps=1e-05, momentum=0.1, affine=True, track_running_stats=True)\n        (2): ReLU()\n        (3): Linear(in_features=64, out_features=64, bias=False)\n        (4): BatchNorm1d(64, eps=1e-05, momentum=0.1, affine=True, track_running_stats=True)\n      )\n      (act_fn): ReLU()\n    )\n  )\n  (output_layer): Linear(in_features=64, out_features=1, bias=True)\n)\n\n\n\n# Create a sample input tensor with a batch size of 2\nfrom torchviz import make_dot\nsample_input = torch.randn(2, input_dim)\n\n# Generate the visualization\noutput = model(sample_input)\ndot = make_dot(output, params=dict(model.named_parameters()))\n\n# Save and render the visualization\ndot.format = 'png'\ndot.render('./figures_static/resnet
…
n.Linear(input_dim, hidden_dim)\n        self.blocks = nn.ModuleList([block(hidden_dim, act_fn) for _ in range(num_blocks)])\n        self.output_layer = nn.Linear(hidden_dim, output_dim)\n        \n    def forward(self, x):\n        x = self.input_layer(x)\n        for block in self.blocks:\n            x = block(x)\n        x = self.output_layer(x)\n        return x\n\n\ninput_dim = 10\noutput_dim = 1\nhidden_dim = 64\nmodel = PreActResNetRegression(input_dim, output_dim, PreActResNetBlock, num_blocks=2, hidden_dim=hidden_dim, act_fn=nn.ReLU)\nmodel\n\nPreActResNetRegression(\n  (input_layer): Linear(in_features=10, out_features=64, bias=True)\n  (blocks): ModuleList(\n    (0-1): 2 x PreActResNetBlock(\n      (net): Sequential(\n        (0): LayerNorm((64,), eps=1e-05, elementwise_affine=True)\n        (1): ReLU()\n        (2): Linear(in_features=64, out_features=64, bias=False)\n        (3): LayerNorm((64,), eps=1e-05, elementwise_affine=True)\n        (4): ReLU()\n        (5): Linear(in_features=64, out_features=64, bias=False)\n      )\n    )\n  )\n  (output_layer): Linear(in_features=64, out_features=1, bias=True)\n)\n\n\n\nfrom torchviz import make_dot\n# Create a sample input tensor\nsample_input = torch.randn(1, input_dim)\n\n# Generate the visualization\noutput = model(sample_input)\ndot = make_dot(output, params=dict(model.named_parameters()))\n\n# Save and render the visualization\ndot.format = 'png'\ndot.render('./figures_static/preact_resnet_regression')\n\
…
45703125}\n\n\n(4129.66845703125, 4129.66845703125)\n\n\n\nmodel = load_light_from_checkpoint(config, fun_control)\n\nconfig: {'l1': 16, 'epochs': 4096, 'batch_size': 2048, 'act_fn': ReLU(), 'optimizer': 'Adam', 'dropout_prob': 0.010496789685251895, 'lr_mult': 3.789080686036231, 'patience': 16, 'batch_norm': False, 'initialization': 'kaiming_uniform'}\nLoading model with 16_4096_2048_ReLU_Adam_0.0105_3.7891_16_False_kaiming_uniform_TEST from runs/saved_models/16_4096_2048_ReLU_Adam_0.0105_3.7891_16_False_kaiming_uniform_TEST/last.ckpt\nModel: NNLinearRegressor(\n  (layers): Sequential(\n    (0): Linear(in_features=10, out_features=320, bias=True)\n    (1): ReLU()\n    (2): Dropout(p=0.010496789685251895, inplace=False)\n    (3): Linear(in_features=320, out_features=160, bias=True)\n    (4): ReLU()\n    (5): Dropout(p=0.010496789685251895, inplace=False)\n    (6): Linear(in_features=160, out_features=320, bias=True)\n    (7): ReLU()\n    (8): Dropout(p=0.010496789685251895, inplace=False)\n    (9): Linear(in_features=320, out_features=160, bias=True)\n    (10): ReLU()\n    (11): Dropout(p=0.010496789685251895, inplace=False)\n    (12): Linear(in_features=160, out_features=160, bias=True)\n    (13): ReLU()\n    (14): Dropout(p=0.010496789685251895, inplace=False)\n    (15): Linear(in_features=160, out_features=80, bias=True)\n    (16): ReLU()\n    (17): Dropout(p=0.010496789685251895, inplace=False)\n    (18): Linear(in_features=80, out_features=80, bias=True)\n    (19): ReLU()\n    (20): Dropout(p=0.010496789685251895, inplace=False)\n    (21): Linear(in_features=80, out_features=1, bias=True)\n  )\n)\n\n\n\n43.3.0.1 Details of the Training Process on the Test Data\n\nThe test_model method initializes the model with the tuned architecture as follows:\n\nmodel = fun_control[\"core_model\"](**config, _L_in=_L_in, _L_out=_L_out, _torchmetric=_torchmetric)\n\nThen, the Lightning Trainer is initialized with the fun_control dictionary and the model a
…
    "text": "43.6 Feature Attributions\n\n43.6.1 Integrated Gradients\n\nfrom spotpython.plot.xai import get_attributions, plot_attributions\ndf_att = get_attributions(S, fun_control, attr_method=\"IntegratedGradients\", n_rel=10)\nplot_attributions(df_att, attr_method=\"IntegratedGradients\")\n\ntrain_model result: {'val_loss': 3916.88623046875, 'hp_metric': 3916.88623046875}\nconfig: {'l1': 16, 'epochs': 4096, 'batch_size': 2048, 'act_fn': ReLU(), 'optimizer': 'Adam', 'dropout_prob': 0.010496789685251895, 'lr_mult': 3.789080686036231, 'patience': 16, 'batch_norm': False, 'initialization': 'kaiming_uniform'}\nLoading model with 16_4096_2048_ReLU_Adam_0.0105_3.7891_16_False_kaiming_uniform_TRAIN from runs/saved_models/16_4096_2048_ReLU_Adam_0.0105_3.7891_16_False_kaiming_uniform_TRAIN/last.ckpt\nModel: NNLinearRegressor(\n  (layers): Sequential(\n    (0): Linear(in_features=10, out_features=320, bias=True)\n    (1): ReLU()\n    (2): Dropout(p=0.010496789685251895, inplace=False)\n    (3): Linear(in_features=320, out_features=160, bias=True)\n    (4): ReLU()\n    (5): Dropout(p=0.010496789685251895, inplace=False)\n    (6): Linear(in_features=160, out_features=320, bias=True)\n    (7): ReLU()\n    (8): Dropout(p=0.010496789685251895, inplace=False)\n    (9): Linear(in_features=320, out_features=160, bias=True)\n    (10): ReLU()\n    (11): Dropout(p=0.010496789685251895, inplace=False)\n    (12): Linear(in_features=160, out_features=160, bias=True)\n    (13): ReLU()\n    (14): Dropout(p=0.010496789685251895, inplace=False)\n    (15): Linear(in_features=160, out_features=80, bias=True)\n    (16): ReLU()\n    (17): Dropout(p=0.010496789685251895, inplace=False)\n    (18): Linear(in_features=80, out_features=80, bias=True)\n    (19): ReLU()\n    (20): Dropout(p=0.010496789685251895, inplace=False)\n    (21): Linear(in_features=80, out_features=1, bias=True)\n  )\n)\ntrain_size: 0.36, val_size: 0.24, test_sie: 0.4 for splitting test data.\ntest samples: 177 generated for test data.\nLightDataModule.test_dataloader(). Test set size: 177\n\n\n\n\n\n\n\n\n\n\n\n43.6.2 Deep Lift\n\ndf_lift = get_attributions(S, fun_control, attr_method=\"DeepLift\",n_rel=10)\nprint(df_lift)\nplot_attributions(df_lift,  attr_metho
…
    "text": "43.7 Conductance\n\nfrom spotpython.plot.xai import plot_conductance_last_layer, get_weights_conductance_last_layer\nweights_last, layer_conductance_last = get_weights_conductance_last_layer(S, fun_control)\nplot_conductance_last_layer(weights_last, layer_conductance_last, figsize=(6, 6))\n\ntrain_model result: {'val_loss': 3778.288818359375, 'hp_metric': 3778.288818359375}\nconfig: {'l1': 16, 'epochs': 4096, 'batch_size': 2048, 'act_fn': ReLU(), 'optimizer': 'Adam', 'dropout_prob': 0.010496789685251895, 'lr_mult': 3.789080686036231, 'patience': 16, 'batch_norm': False, 'initialization': 'kaiming_uniform'}\nLoading model with 16_4096_2048_ReLU_Adam_0.0105_3.7891_16_False_kaiming_uniform_TRAIN from runs/saved_models/16_4096_2048_ReLU_Adam_0.0105_3.7891_16_False_kaiming_uniform_TRAIN/last.ckpt\nModel: NNLinearRegressor(\n  (layers): Sequential(\n    (0): Linear(in_features=10, out_features=320, bias=True)\n    (1): ReLU()\n    (2): Dropout(p=0.010496789685251895, inplace=False)\n    (3): Linear(in_features=320, out_features=160, bias=True)\n    (4): ReLU()\n    (5): Dropout(p=0.010496789685251895, inplace=False)\n    (6): Linear(in_features=160, out_features=320, bias=True)\n    (7): ReLU()\n    (8): Dropout(p=0.010496789685251895, inplace=False)\n    (9): Linear(in_features=320, out_features=160, bias=True)\n    (10): ReLU()\n    (11): Dropout(p=0.010496789685251895, inplace=False)\n    (12): Linear(in_features=160, out_features=160, bias=True)\n    (13): ReLU()\n    (14): Dropout(p=0.010496789685251895, inplace=False)\n    (15): Linear(in_features=160, out_features=80, bias=True)\n    (16): ReLU()\n    (17): Dropout(p=0.010496789685251895, inplace=False)\n    (18): Linear(in_features=80, out_features=80, bias=True)\n    (19): ReLU()\n    (20): Dropout(p=0.010496789685251895, inplace=False)\n    (21): Linear(in_features=80, out_features=1, bias=True)\n  )\n)\ntrain_model result: {'val_loss': 3133.411865234375, 'hp_metric': 3133.411865234375}\nconfig: {'l1': 16, 'epochs': 4096, 'batch_size': 2048, 'act_fn': ReLU(), 'optimizer': 'Adam', 'dropout_prob': 0.010496789685251895, 'lr_mult': 3.789080686036231, 'patience': 16, 'batch_norm': False, 'initialization': 'kaiming_uniform'}\nLoading model with 16_4096_2048_ReLU_Adam_0.0105_3.7891_16_False_kaiming_uniform_TRAIN from runs/saved_models/16_4096_2048_ReLU_Adam_0.0105_3.7891_16_False_kaiming_uniform_TRAIN/last.ckpt\nModel: NNLinearRegressor(\n  (layers): Sequential(\n    (0): Linear(in_features=10, out_features=320, bias=True)\n    (1): ReLU()\n    (2): Dropout(p=0.010496789685251895, inplace=False)\n    (3): Linear(in_features=320, out_features=160, bias=True)\n    (4): ReLU()\n    (5): Dropout(p=0.010496789685251895, inplace=False)\n    (6): Linear(in_features=160, out_features=320, bias=True)\n    (7): ReLU()\n    (8): Dropout(p=0.010496789685251895, inplace=False)\n    (9): Linear(in_features=320, out_features=160, bias=True)\n    (10): ReLU()\n    (11): Dropout(p=0.010496789685251895, inplace=False)\n    (12): Linear(in_features=160, out_features=160, bias=True)\n    (13): ReLU()\n    (14): Dropout(p=0.010496789685251895, inplace=False)\n    (15): Linear(in_features=160, out_features=80, bias=True)\n    (16): ReLU()\n    (17): Dropout(p=0.010496789685251895, inplace=False)\n    (18): Linear(in_features=80, out_features=80, bias=True)\n    (19): ReLU()\n    (20): Dropout(p=0.010496789685251895, inplace=False)\n    (21): Linear(in_features=80, out_features=1, bias=True)\n  )\n)\nConductance analysis for layer:  Linear(in_features=80, out_features=1, bias=True)",
    "crumbs": [
      "Hyperparameter Tuning with PyTorch Lightning",
      "<span class='chapter-number'>43</span>  <span class='chapter-title'>Explainable AI with SpotPython and Pytorch</span>"
    ]
  },
  {
    "objectID": "603_spot_lightning_transformer_introduction.html",
…
